…
, label='loss')plt.plot(range(nb_epoch), val_loss, marker='.', label='val_loss')plt.legend(loc='best', fontsize=10)plt.grid()plt.xlabel('epoch')plt.ylabel('loss')plt.show() 14. 実行結果分類対象の画像です。CIFAR-10では32x32のサイズの画像を10種類に分類します。 モデルの要約です。畳み込み層、プーリング層、ドロップアウト層、活性化層(relu)を利用した典型的なCNNになっています。最後の出力には全結合層と活性化層(SoftMax)を利用しています。 12345678910111213141516171819202122232425262728293031323334353637383940414243Model: \"sequential\"_________________________________________________________________Layer (type) Output Shape Param # =================================================================conv2d (Conv2D) (None, 32, 32, 32) 896 _________________________________________________________________activation (Activation) (None, 32, 32, 32) 0 _________________________________________________________________conv2d_1 (Conv2D) (None, 30, 30, 32) 9248 _________________________________________________________________activation_1 (Activation) (None, 30, 30, 32) 0 _________________________________________________________________max_pooling2d (MaxPooling2D) (None, 15, 15, 32) 0 _________________________________________________________________dropout (Dropout) (None, 15, 15, 32) 0 _________________________________________________________________conv2d_2 (Conv2D) (None, 15, 15, 64) 18496 _________________________________________________________________activation_2 (Activation) (None, 15, 15, 64) 0 _________________________________________________________________conv2d_3 (Conv2D) (None, 13, 13, 64) 36928 _________________________________________________________________activation_3 (Activation) (None, 13, 13, 64) 0 _________________________________________________________________max_pooling2d_1 (MaxPooling2 (None, 6, 6, 64) 0 _________________________________________________________________dropout_1 (Dropout) (None, 6, 6, 64) 0 _________________________________________________________________flatten (Flatten) (None, 2304) 0 _________________________________________________________________dense (Dense) (None, 512) 1180160 _________________________________________________________________activation_4 (Activation) (None, 512) 0 _________________________________________________________________dropout_2 (Dropout) (None, 512) 0 _________________________________________________________________dense_1 (Dense) (None, 10) 5130 _________________________________________________________________activation_5 (Activation) (None, 10) 0 =================================================================Total params: 1,250,858Trainable params: 1,250,858Non-trainable params: 0 訓練経過です。だいたい1エポック9秒程度で終わっています。また検証データの正解率(val_accuracy)も77%程度になっています。ちなみに下記の結果はGPUを使用したものですが、CPUの場合は1エポックで43秒程かかりました。GPUは偉大です・・・ 12345678910111213141516171819202122232425262728293031Train on 50000 samples, validate on 10000 samplesEpoch 1/1550000/50000 [=======
…
